model_cnn.pth (torch, 435608 bytes, 8 tensors)

conv1.weight f4 [6, 3, 5, 5]
00000000: 8679 053e 1140 04bd 34cc ebbc bf1e 06bd
00000010: 4c00 b23d e859 223d 34f9 223e b03c a43d
00000020: 6459 2cbd c516 b1bd a20d 013e 41be a93e
00000030: ee28 a43e ddc2 553d da5e 31bb 81c6 64be
00000040: 9ac7 e9be 84da d4be cc18 22be b4d6 133c
00000050: 0e2f 5a3d 86d9 aebd e4df 223c fd77 e23d
00000060: 657a 393e 7aa7 e83d 6ac5 23be c672 c8bd
00000070: c78d 1d3e 40a8 793d 3e0a fd3c 2533 e7bc
00000080: b4a7 ed3d 6a7e 09bd 2ae7 ecbd 356f 2f3e
00000090: a819 b73e b181 753e beb0 3e3d d014 13be
000000a0: 8b96 6dbe e8b1 c8be 2fb8 9cbe a6e4 8b3c
000000b0: 4388 f33c 4c0e 9bbd b1e7 a3bd 4236 fcbd
000000c0: 640c e1bd 187d 413e ce12 81bd e6b5 79bd
000000d0: 525c 37bd 06cc 3b3d ff2e 8bbc e133 ddbd
000000e0: 2de5 2e3a dda7 013e d673 083d 0066 a03d
000000f0: e0e3 153e fcc6 1f3f fa9f df3e 8303 d43d
00000100: 8165 08be 2d98 113e b2ba 8fbe 9e7f 9ebe
00000110: 3bf0 aebb 9653 243d 05d1 92bd 330b 02be
00000120: da9b eebd dbb4 39be 21a0 12bd cb0e 623d
00000130: 0023 af3d 9a9f 2ebe 34dd 40bd 28ba 2fbd
00000140: 8843 c63d 1cf7 af3d bd57 d0be e2b4 ea3e
00000150: 4a34 9cbd 8b37 0a3e d4a8 0f3e f7d0 17bf
00000160: 5f24 c83e 5f7d ddbd 3741 8f3d c4e9 20bd
00000170: 3f9f 8bbe 537f f23d bc4e 98bd cf7d 913d
00000180: 3d15 5b3b 5c15 d83c 27a5 133d 99a0 a8bb
00000190: 2bde 85bd ca77 47bd 3e4b 54be 9268 8c3e
000001a0: cca6 7e3d 93df 38bc b3fb 0cbd 8a7d 00bf
000001b0: 2d26 0f3f 95d3 f3bd 6f30 4e3d 6263 073d
000001c0: a196 09bf 62ca 353f 359d d1bd e0e7 60bd
000001d0: bc29 57bd 43b2 b6be 0f09 9c3e f7f3 083d
000001e0: 5924 d6bc 78e2 53bd c66b b4bc 7e4f 0d3d
000001f0: 9d55 ff3d c990 08bc 1047 d03b c951 debd
00000200: 8fa3 623e a679 09be 3f50 c73d 5a3b fe3d
00000210: 028e acbe ba12 fc3e b624 38be bf0e 5d3c
00000220: 89cc 723d 2170 ddbe 3666 f13e ff42 7abe
00000230: 0bc1 133d 3aec 323e e2fb 0ebe 820b 4f3e
00000240: 2b0d 0ebe 6fa4 0bbd e010 62bc f65c 3ebd
00000250: 6b99 87bd 8523 9ebd 7c31 603e 96d6 edbd
00000260: b530 1bbc 5a6e 8d3c 60c2 7c3e 8472 9d3d
00000270: 7ffb 05be ea7e bcbd 79e2 fcbd b99f 6f3e
00000280: 63a5 dbbc 5534 a0be edeb 59be bd0b 5bbe
00000290: 46ac 6a3d 8805 bebd 8007 00be 969f 83be
000002a0: 4d2e 68be 4e97 63bc 3400 95bd 407d 7cbe
000002b0: afc1 67be 5438 abbd 584c 443d 71b8 41bc
000002c0: 4e2a 90bd 83c9 05be 7bfe 0d3c 9ef9 d6bc
000002d0: 25e6 8fbd 4ca4 f03c 57a4 96bd 2577 f9bd
000002e0: 3727 a4bd 5a89 8abc 8dd1 1b3e e9ab f83d
000002f0: 1660 a7bd 38ff 9bbd e4d9 d13c d584 b5bc
00000300: 0aa2 ce3d db88 cd3d d080 dfbd 4bce af3a
00000310: 277e 403d 0ae6 4ebb 50ed 32bd e8f0 09bd
00000320: 9878 67bd e25e 913d 300a 3bbc 02a0 edbc
00000330: 7f5b b9bd 12e0 633d bbc8 233e fbe4 1d3d
00000340: 7c1c 08bd 0e05 46be 1487 7c3d 436c a03e
00000350: dfdd 823e d50e 873e eec9 4ebe d965 cd3d
00000360: d147 863e dcfa 8d3e 48e3 813e d9e5 743d
00000370: 1f46 94bd e253 823e aa30 a13e 3a7c 2c3e
00000380: 1c75 03be 03c0 d13d e52d 3d3c d922 a0bd
00000390: fb34 96bc b9bf 1bbd 1070 c53d 940f b53d
000003a0: 6226 773d bdd7 293e c504 613d 7b56 973d
000003b0: 3dc9 923e 70dc 373e 3c3b 9a3e 37d0 483e
000003c0: 0210 833d 96c3 603e a52d 4a3e 92c1 603e
000003d0: 72f9 2b3e f57c 43be 6af5 13bd bba8 dd3d
000003e0: caeb ad3d ce2d d1bd 2081 d7bd f8f5 80be
000003f0: f350 8dbd 2479 5abc 5552 81bc 2f7d ccbd
0.13034639 -0.03228766 -0.028783895 -0.032744166 0.08691463 0.039636523 0.15915376 0.08019388
-0.042077437 -0.08646921 0.12602857 0.33152965 0.32062477 0.05218779 -0.0027064593 -0.22341348
-0.45660096 -0.41572964 -0.15829772 0.009023357 0.05326753 -0.08537583 0.009941075 0.11058042
0.18113096 0.113600686 -0.15993276 -0.09787516 0.15386115 0.06095147 0.030888673 -0.02822263
0.116042525 -0.033567823 -0.115675285 0.17132266 0.35761762 0.23975255 0.046555273 -0.14363408
-0.23201959 -0.39198232 -0.3060927 0.017076802 0.02972806 -0.07571086 -0.08003176 -0.12315036
-0.109886914 0.18895376 -0.06302415 -0.060964487 -0.044765778 0.04584887 -0.016990183 -0.10800911
0.0006671723 0.12661691 0.033313595 0.07831955 0.14637709 0.62413 0.4367674 0.10352232
-0.1331997 0.14218207 -0.28072125 -0.3095674 -0.0053386963 0.040118776 -0.071687736 -0.12699585
-0.1165082 -0.18135397 -0.035797242 0.05518989 0.085515976 -0.1705307 -0.047085956 -0.04290214
0.09680849 0.08592054 -0.4069194 0.45841128 -0.07627161 0.1349775 0.14029247 -0.5930323
0.3909025 -0.10814928 0.069948606 -0.039285436 -0.27269933 0.118406914 -0.074368924 0.07104074
0.0033429407 0.026377372 0.036046173 -0.005146098 -0.06536516 -0.048698224 -0.20731828 0.2742353
0.06217079 -0.011283773 -0.034419727 -0.5019156 0.55917627 -0.119055904 0.05033916 0.033053763
-0.53745466 0.71011937 -0.10235063 -0.054908633 -0.052530035 -0.35682878 0.3047566 0.033435788
-0.026140379 -0.05172965 -0.022024047 0.034499638 0.12467501 -0.008335301 0.0063561276 -0.10855443
0.22132705 -0.13425311 0.097321026 0.12413664 -0.33702093 0.49233037 -0.17982754 0.013492285
0.05927709 -0.4324961 0.47148293 -0.2443962 0.036072772 0.17472926 -0.13963273 0.20219234
-0.1387221 -0.034092363 -0.013797969 -0.046475373 -0.06621059 -0.077216186 0.21893877 -0.11613195
-0.009472062 0.017264534 0.24683523 0.07687858 -0.1308422 -0.092038944 -0.12347884 0.23400773
-0.026812261 -0.31289926 -0.21281405 -0.21391197 0.0572932 -0.09278399 -0.12502861 -0.25707692
-0.22673912 -0.013891054 -0.07275429 -0.24657154 -0.22632478 -0.08360353 0.04792437 -0.011823759
-0.07039319 -0.13065152 0.00866663 -0.026242074 -0.070263185 0.029375218 -0.07355564 -0.12180928
-0.08015292 -0.016911197 0.15216656 0.12142164 -0.08172624 -0.076170385 0.025616594 -0.022158066
0.100895 0.10035869 -0.10913241 0.001341292 0.04699531 -0.003157022 -0.04368335 -0.03367701
-0.05651149 0.070981756 -0.011416003 -0.029006962 -0.090506546 0.055633612 0.15994541 0.03854845
-0.03323029 -0.19337866 0.061652258 0.31332597 0.255599 0.26378503 -0.20194218 0.100291915
0.26226667 0.27730453 0.25368714 0.059789512 -0.07239937 0.25454623 0.3148244 0.16844264
-0.12837642 0.102417015 0.011546587 -0.07819147 -0.01833581 -0.038024638 0.09640515 0.08840862
0.06033934 0.16586204 0.05493619 0.07389542 0.28669158 0.17955184 0.30123317 0.19610678
0.063995376 0.2194961 0.19743975 0.21948841 0.16794375 -0.19090636 -0.036122717 0.108231984
0.08492239 -0.10213815 -0.105226755 -0.2518766 -0.069002055 -0.013334546 -0.01578633 -0.099848144

conv1.bias f4 [6]
00000000: f0f7 83bd 166f 66bc 7c14 173e 766e 543e
00000010: 5e07 e23d f6e3 57be
-0.06443775 -0.014064571 0.14753908 0.20745263 0.110365614 -0.21083054

conv2.weight f4 [16, 6, 5, 5]
00000000: 3da9 623d fb39 8c3d 1350 9dbc 7de6 0ebb
00000010: ad31 82bd 89de 31bd df7a 45bd 47da 96bb
00000020: 4221 a2bd bed6 a0bc 938e 7bbd 872c b13c
00000030: 09e8 523c d9ce d33b 7aa3 563c 80db 753c
00000040: 93ba 5cbd a993 56bd 9be1 3dbd d340 d2bd
00000050: 1e3c 6abc df82 5fbd 29b5 a7bd d2a2 bfbd
00000060: 863b 60bd 3a69 163d 87df 44ba 5685 babd
00000070: 52b1 c7bd 9922 acbd 33f0 02be 0e5f a8bd
00000080: 5eab f9bd 55ed 75bc dbdc 78bc 5e08 36bd
00000090: f4af 01be 856c 70bd 41c8 05be 2678 77bc
000000a0: ec5d 19be c21a 02be de28 8ebd b45d 79bd
000000b0: a8b2 17be 85a4 07be 4f3d 1cbd a057 20be
000000c0: 5c5a 26be 2219 03be 4cfc 99bc 6531 1bbd
000000d0: e6a6 82bc d1f9 44bd 88f7 a4bd cd9d 02be
000000e0: 195d 18bd d2fd 57bd acf1 f43b 5aeb e0bd
000000f0: 0667 eebd 4a9e 913b d16b fbbd 0e09 adbd
00000100: 8093 05be 6a8e 8cbc 104f adbc 755b ddbd
00000110: 713d acbd 53a3 09be 5f96 c6bd a5c2 a9bb
00000120: 38f8 d5bd 63e2 be3b 782d 95bc c9c2 1f3d
00000130: e348 54bc cc2f 9bbd 47d0 8bbd 33c9 e43c
00000140: 0810 7abd 44b7 d9bd 17c1 86bd 1533 363d
00000150: c84e a7bd 8633 263d d970 ecbd 49fb 5fbd
00000160: 14ce 2cbd 999d 8bbc a891 bcbc 6f44 70bd
00000170: 6603 09bd a449 88bd 47f8 37bd c294 293d
00000180: 1e16 26bd 677c e5bc 0e4c 88bd 489a 4cbb
00000190: 5256 833b deab c6bd bb1c 55bd ed92 42bd
000001a0: f0a0 45bd 483a abbd 3d3f 6bbc c7fb d1bd
000001b0: 81fd 633d d9de 593d f294 a3bd 235a 7dbc
000001c0: b7e5 b6bd 434f 79bd 75b7 e7bc fa75 1bbe
000001d0: f80c d0bd 6b62 67bd 8e33 96bd 05ae cc3c
000001e0: 6da6 d13b b0ef f93b da84 54bd 0437 d0bd
000001f0: 350d a0bd a434 85bd f908 0dbd 1e71 39bd
00000200: ce63 c8bc db2b 193b 2195 0b3c d09b 83bd
00000210: 9512 8cbd 6922 e63c d9a7 6abd 23a3 c0bb
00000220: efef bbbd 9680 12bd f146 c7bc 13e5 a1bc
00000230: a82b 06bd d4e4 d5bd 73ca 8abd 0457 c7bd
00000240: 64f1 51bd 3a90 b1bd a74a 3ebc deba 1bbd
00000250: 14cd 1ebd b20e 84bd c330 113e 9ae3 66be
00000260: 478e acbd fa80 6f3e 6a9f 9d3d 7174 763d
00000270: 2b51 9e3d 11ef 0ebf e5d1 01be 798b 873e
00000280: 51e9 ae3b 3423 413e 9f6a 973c 82dd 0bbf
00000290: 2763 52bd d970 c2bc 6612 ae3c eb79 4e3d
000002a0: afb5 e8bc d467 5abe 6949 583c a703 213d
000002b0: 4593 d63b 626f 6ebc c3ea 4fbd eeb5 51bd
000002c0: c5bc 2ebd c4f5 2c3a 1d22 9c3d 7537 093d
000002d0: f1d2 c0bb 0b44 5dbe 9b85 ebbd da07 b4bd
000002e0: b2fd 6abd c1b1 fb3b befd cfbd 455b cfbe
000002f0: 8f31 26be 9a60 82bc 897f 933b b3b6 93bc
00000300: 951f ecbd a638 41be 867f c6bd ecbd cc3c
00000310: 9889 8e3c b6ab db3d 99e1 a5bb 61cb 253d
00000320: 1e7b a83e 1e71 8abc 1a91 f1be 154d 72be
00000330: 1c3e e43e a50c 8d3e 20a1 2d3e 6a9c e3bc
00000340: eced 3cbf f867 46be 96dd 403e 5f0c 0cbd
00000350: 8ed9 763e a002 81bd 3f13 f9be 11ba 743e
00000360: 9526 3e3b 0264 d6bd c90d 903c c6a4 f5bd
00000370: 01e7 0a3e 1d41 463e 8c41 c2bc 546d 733c
00000380: 334b 083e 6aab e03d 16b4 723e c9b8 303e
00000390: 7c61 90bd 65a7 7b3d f27e bebb 129a 30be
000003a0: df41 7e3e 8c87 013e 5194 0fbe ea46 fcbc
000003b0: f41c 1dbe 74ba 11be 47e7 7d3e 93b9 e73d
000003c0: edb8 0cbe b3e6 093e 4f1f 6abe 2cd3 11bc
000003d0: 18b3 3d3e 4425 17be ec35 a5bd f745 f83d
000003e0: 7465 adbd df37 893c 44ac db3d 9da4 813e
000003f0: fa66 2b3e b7e6 7cbe e2a4 58bd 6752 4ebe
0.05533718 0.068469964 -0.019203221 -0.0021804862 -0.06357131 -0.043425117 -0.048212882 -0.0046036574
-0.079165 -0.019633647 -0.061415266 0.021627678 0.012872704 0.006463867 0.013100499 0.015005946
-0.05388887 -0.052386913 -0.046357732 -0.102662705 -0.01429656 -0.054568168 -0.081888504 -0.093572274
-0.054744266 0.036721446 -0.0007510115 -0.09107463 -0.09750618 -0.084050365 -0.12786941 -0.08221255
-0.12190889 -0.015010198 -0.015189375 -0.044441573 -0.12664777 -0.058697242 -0.13064672 -0.015104329
-0.14977235 -0.1270552 -0.069413885 -0.060880378 -0.14814246 -0.13246353 -0.038144406 -0.15658426
-0.16245407 -0.12802556 -0.018797062 -0.037888903 -0.015948724 -0.048089806 -0.08055025 -0.12755509
-0.03719816 -0.052732296 0.0074750986 -0.1098239 -0.11640744 0.0044439184 -0.12276424 -0.08448993
-0.13044548 -0.017157752 -0.021155864 -0.1080846 -0.084101565 -0.1344121 -0.0969665 -0.005180674
-0.104477346 0.0058253272 -0.018210158 0.03900412 -0.012956831 -0.07577476 -0.06826835 0.02792797
-0.061050445 -0.10630658 -0.06579798 0.04448231 -0.08169323 0.04057648 -0.115449615 -0.054683004
-0.04218872 -0.017042922 -0.023018673 -0.058659013 -0.033450507 -0.06654671 -0.04491451 0.041401632
-0.040548436 -0.028013421 -0.06655131 -0.0031219888 0.004008093 -0.0970075 -0.052029353 -0.0475034
-0.048249185 -0.08360726 -0.014358339 -0.10253101 0.055661682 0.05319104 -0.079873934 -0.015463385
-0.089305334 -0.060866605 -0.028285721 -0.15181723 -0.101587236 -0.056490343 -0.07334052 0.024985323
0.0063980133 0.00762745 -0.05188451 -0.101667434 -0.07815019 -0.06504181 -0.034432385 -0.045273893
-0.024461653 0.0023372087 0.008519442 -0.06426203 -0.06839482 0.02809258 -0.05728898 -0.0058788224
-0.09176623 -0.03576716 -0.02432582 -0.019762551 -0.032756478 -0.10444036 -0.067768954 -0.09733394
-0.0512556 -0.08670087 -0.011614478 -0.038020007 -0.038769796 -0.064481154 0.14178757 -0.2254776
-0.08425575 0.23389044 0.076964214 0.06016964 0.07730325 -0.55833536 -0.12677725 0.26473597
0.005337872 0.18861085 0.018483458 -0.5463487 -0.05136409 -0.02373545 0.021249007 0.05040924
-0.028406946 -0.2132867 0.013201096 0.039310124 0.0065483176 -0.014552923 -0.050760996 -0.051198892
-0.042660493 0.0006597901 0.07623694 0.033500154 -0.005884521 -0.21607988 -0.115000926 -0.0879056
-0.05737085 0.007681102 -0.10155819 -0.4049932 -0.16229843 -0.015915204 0.0045012874 -0.018031454
-0.11529461 -0.18869266 -0.09692292 0.024992906 0.017399594 0.10726111 -0.0050622937 0.04047716
0.3290643 -0.016899642 -0.47181016 -0.23662217 0.44578636 0.2754871 0.16955996 -0.027784545
-0.7380054 -0.19375598 0.18834528 -0.034191485 0.24106428 -0.06299329 -0.48647496 0.23899104
0.0029014696 -0.10468294 0.017584698 -0.11994319 0.13564683 0.19360776 -0.023712896 0.014857609
0.13309936 0.10970195 0.2370151 0.1725799 -0.07049844 0.061438937 -0.005813473 -0.17246273
0.24829815 0.12649363 -0.14021422 -0.030795533 -0.15343076 -0.14231282 0.24795257 0.11314692
-0.13742419 0.13466911 -0.22863506 -0.008900445 0.1852535 -0.1476031 -0.080669254 0.1212272
-0.08466616 0.016750274 0.107262164 0.25320902 0.16738501 -0.24697386 -0.05289162 -0.20148621

conv2.bias f4 [16]
00000000: 782a 0dbe 03d3 25be 0a51 f83d d14b dd3e
00000010: f096 d63e c0b9 58be e12a 053e ce5d c53b
00000020: 2e56 c7be f294 193f 0b40 edbc 85b6 053f
00000030: 3099 63be 5376 103e 2bdc 1dbe 66d6 773e
-0.13785732 -0.16193776 0.12124832 0.43221906 0.4191203 -0.21164608 0.13004638 0.0060231453
-0.38932937 0.599929 -0.028961202 0.5223163 -0.22226405 0.14107637 -0.15416019 0.2420288

fc1.weight f4 [256, 400]
00000000: fcd7 cabd cdad 52bc 1138 50bc b072 883c
00000010: 3a13 1ebd d81d 7ebd a409 413d 5299 f53a
00000020: e0f9 abbd c2df 67bd 93db 15bc b06e 2cbc
00000030: df28 3cbd e0b9 17bd 6e61 6fbd f8fc bcbc
00000040: 38a2 e23b de41 b63d f3ec 4d3d baf3 843d
00000050: 6d51 77b9 d8f1 bf3c 0f63 5c3c f503 693d
00000060: 7dd7 95bc e37e 17be b449 19be 366d 7ebd
00000070: 0cb0 d3be 7443 adbf 5a6e bfbe edd1 4bbe
00000080: 3b70 f83d f773 dd3d de08 f6be a338 b63d
00000090: 4359 d83d ced9 3ebd 416d aabc fc6e b5be
000000a0: 53b9 a03e 6abc a53d 5fd1 863d bf60 c5be
000000b0: 69e2 14be fc5c 063f e137 593e 6ea7 c7bd
000000c0: 7777 8cbe 132f 5bbe b804 c3bf bc3b 2bbf
000000d0: 33e8 883e 9ce1 7c3e 1ff3 2ebf 6c13 06bf
000000e0: 69ab 923d d69d 9f3e 4f0c 2f3e 5209 d8be
000000f0: ea18 96bd 2a66 e13e d6f1 243e 062b 95bd
00000100: 39eb febe 92fe ecbd 3a8f 373c 5cc1 053e
00000110: 4514 c1bd 472a 73be c2d0 41be 80c8 1fbe
00000120: a01a 00be 73f2 343e c8f4 81be 998e 44be
00000130: de41 4e3c 3b3d 60bf f26e e0be f0fb 1abe
00000140: c2c1 5e3e d135 7c3e 23e2 21bf d257 14bd
00000150: 6bb2 1cbe 57e1 3b3e 664f 0b3e 8a96 063f
00000160: 6bed ee3e cb49 2c3e e74d e23d 0989 8f3e
00000170: af25 d03e be5c e93e 2f9d 033f 5eda e73d
00000180: f9a3 c13d 8c68 dd3e b0e7 ad3e b737 453d
00000190: 40ef 643e b2b2 353e 3817 77be 3fbb 01be
000001a0: e5ee 2b3e 7e27 e43d 94c3 603e 1855 32be
000001b0: 3f75 9abd 5293 1a3e 8ef6 883d bb1f c9bd
000001c0: 8eab 7e3d b026 2bbe ea6b 253e 30ec 673e
000001d0: 5b89 573e 32e9 0e3e 4a60 323e 60f2 be3e
000001e0: c03c 903d bb3d 43be 798c a4bd 86e3 0e3d
000001f0: 7eac 883e 34d7 dcbe 4888 08be 137a bf3d
00000200: 12c9 04bd 65df b7be 0193 97be b9c1 2cbd
00000210: 1876 143e 745e 7bbe eafc ebbe 16ad 87bd
00000220: 4172 70be 9a55 9fbe de22 7a3c 62c0 f8bc
00000230: d6c0 c1be df50 e5be 7b2a 34be b0b0 01bf
00000240: f0d2 debe c645 73be ae27 c4be 613a 1bbf
00000250: c33f 46bf 8403 50bf 0e1f cbbe e4b8 b73e
00000260: f755 963d dd68 ed3d 3d43 6bbe 3eb0 133c
00000270: 2cc5 383e c59d a9be a6e7 9d3e 995e ed3b
00000280: 5760 9cbd ba53 1d3e 1277 9abd aa9b 0fbe
00000290: 33ea e53d 8f05 c23c fcd4 18bd 4ba2 d0bd
000002a0: d1ef babe 436f f9bd 9264 363e f867 dd3e
000002b0: 6822 e43d 4db5 ab3d d1de 043f 8c6b 9d3d
000002c0: bad9 55be dff5 37be 099e 9a3e 681a 113f
000002d0: b5ca 3cbd 4e6b 65be 08dd 04bf 6d0c 183e
000002e0: 9984 dd3e b145 d53d e894 cdbe 1408 96bc
000002f0: 9512 893e 56b0 823d e4a9 043e 699f 14be
00000300: 4e39 5e3d f31c 53bc ced9 433e 4f39 6e3d
00000310: f297 31be 8f8b 8abe bd98 3ebe bd4c b0be
00000320: 8cbd 8b3e 60cd bfbd 983b 273d 1a46 6cbd
00000330: 0240 513e 7a9d 72bc dc6a 48be 49b4 57be
00000340: 53d4 4cbe bb89 8fbd af83 393e e5f3 49bd
00000350: db9d 98be de61 53be a470 6d3c fb93 923e
00000360: ed0f 063e 209a 70bd 1479 50be f3e4 91bd
00000370: 5fb3 d73d 0b7f 2bbe 79c1 2fbe 4213 a7be
00000380: 009d 883c d1ce 5b3e 81b6 6d3e 46e7 01be
00000390: 9a9a a5be a8c2 613e 3306 b13e 6929 153f
000003a0: 3f3b 453e b664 7fbd afb1 d33e 098b d53e
000003b0: 942a 593e 6a5f 543e 9cd2 9abd 48da ff3c
000003c0: ddbb ec3c 090f 483d d28c d03e 5409 733e
000003d0: a335 893c 9eeb 45be 01b1 91be f05c 93be
000003e0: bd3f 5fbe 8ae0 b8be 5dad fcbe b58f c03d
000003f0: 8629 853e e275 ddbe 7ffc 20bf a1c2 64be
-0.09904477 -0.01285882 -0.01270868 0.01665625 -0.038592555 -0.06204018 0.047128335 0.001873771
-0.08397269 -0.056609876 -0.009146589 -0.010524437 -0.045937415 -0.0370425 -0.058442526 -0.023069844
0.0069163106 0.08899282 0.0502748 0.064918 -0.00023586089 0.02343075 0.013451352 0.05688854
-0.01829123 -0.14794497 -0.14969522 -0.06211587 -0.4134525 -1.353621 -0.3738888 -0.19904299
0.12130781 0.10813134 -0.4805364 0.08897521 0.105639 -0.046594433 -0.02080405 -0.35436237
0.3139139 0.08092578 0.06582903 -0.38550374 -0.14539494 0.5248563 0.21212722 -0.097487316
-0.27434894 -0.21404676 -1.5235815 -0.6688802 0.26739654 0.24695438 -0.68339723 -0.52373385
0.071616 0.31175107 0.17094539 -0.4219461 -0.07328971 0.44023257 0.16107878 -0.07283597
-0.49788836 -0.11571993 0.0112035815 0.13062042 -0.09427694 -0.23746596 -0.18927291 -0.15603828
-0.12510157 0.17670612 -0.25382066 -0.19195022 0.012588946 -0.8759343 -0.43834645 -0.15135169
0.217536 0.24629904 -0.6323568 -0.036216564 -0.15302436 0.18347679 0.13604507 0.52573454
0.4666551 0.16825025 0.11050015 0.28034237 0.4065375 0.4557857 0.5141172 0.11320947
0.094551034 0.43243825 0.33965826 0.048148837 0.22356892 0.17743948 -0.24129951 -0.12669085
0.1679035 0.11140345 0.21949607 -0.17415273 -0.07541894 0.1509526 0.066876516 -0.09820505
0.062175326 -0.16713977 0.16154447 0.22648692 0.2104849 0.13956144 0.17419544 0.37294292
0.07042837 -0.19066517 -0.080346055 0.034884952 0.266941 -0.43132937 -0.13333237 0.09349456
-0.032418318 -0.35912624 -0.29604343 -0.042176936 0.14498174 -0.2454775 -0.46091396 -0.066248104
-0.23481084 -0.31119996 0.015267102 -0.030365173 -0.37842435 -0.44788262 -0.1759433 -0.5066023
-0.43520308 -0.23757085 -0.38311523 -0.60635954 -0.7744104 -0.81255364 -0.3967213 0.35883248
0.07340615 0.11592267 -0.22974868 0.009014187 0.18043965 -0.3312818 0.30840796 0.007243943
-0.07635563 0.1536397 -0.07542242 -0.14024225 0.112263106 0.023684291 -0.037312493 -0.10187205
-0.3651109 -0.121794246 0.17811802 0.43243384 0.11139375 0.0838419 0.5190249 0.076865286
-0.20883837 -0.17964886 0.30198696 0.5668092 -0.046091754 -0.22404215 -0.51899767 0.1484849
0.43265226 0.10413683 -0.4015267 -0.018314399 0.2677199 0.0638129 0.12955433 -0.14513935
0.05425387 -0.01288532 0.19126055 0.058160122 -0.17343119 -0.270596 -0.18612953 -0.34433547
0.2729305 -0.09365344 0.040828317 -0.05768404 0.20434573 -0.014808053 -0.19572014 -0.21064867
-0.2000287 -0.07008692 0.1811664 -0.04930486 -0.29807934 -0.20642802 0.014492188 0.28628525
0.13092013 -0.058740735 -0.20358688 -0.07123747 0.10532259 -0.16747682 -0.17163648 -0.3263188
0.016676426 0.21465613 0.23214151 -0.1268588 -0.32344514 0.22046912 0.34575042 0.5826631
0.19260882 -0.062351905 0.413465 0.41707638 0.21207649 0.20739523 -0.07559702 0.031232014
0.028898174 0.048842464 0.40732437 0.23734027 0.016749209 -0.19328162 -0.28455356 -0.28781843
-0.21801658 -0.3610881 -0.49351016 0.0940241 0.26008242 -0.43254 -0.6288528 -0.2233987

fc1.bias f4 [256]
00000000: 8e2d d73e 4c05 c33f ab2e 333c 9e5f 9c3f
00000010: e4f5 e8bb 078a ae3e 6503 aa3f 1976 f8bc
00000020: 44c7 8cbe d548 50bf afbe 77be a059 1b3e
00000030: be9e 57bd 52bd efbb b447 83bd d6b0 94be
00000040: 49da 133a d039 9bbd 4c5b cf3c 78be 0b3f
00000050: f182 6bbe d2a9 1a3c fe03 2bbf b756 e23e
00000060: 06a7 89bd 0d0b 4c3b 711c 33be ac82 c6bc
00000070: 1fd8 6dbf 1816 8d3f c004 c93d 8d48 e1be
00000080: 1b23 63bd f960 51bd bae0 8fbf e82e 9b3e
00000090: e59a b83e 66bb dd3e da68 33bd 0658 d03e
000000a0: be6a 88bd 3ba4 1fbd adaf 0fbf fa42 483f
000000b0: a854 6cbd 3479 1340 feb3 d8bb 1d84 d03f
000000c0: fd59 6cbd aec0 66bd 6e69 7abd f7f6 053e
000000d0: 3ca0 2cbc 6192 8abd 4fa6 b5bd 3eff 0fbd
000000e0: 733d 2fbe 7791 51bc 4750 ea3e 32e4 193c
000000f0: db64 363e a5c0 67bd f5d7 743f 2770 633e
00000100: 0294 d93f f76b 22bf 0a12 59bf fd81 a0bf
00000110: 0775 473e 7bb8 f73d 84d2 fc3d 3955 c03d
00000120: 17de 87bd 06ac e4be 428a 183e 9ea4 82be
00000130: f845 133f d383 8abe 9262 9cbf f231 61bc
00000140: f356 15bf 75be 333f 071c c8bc 897c 5d3f
00000150: 95cc 77bd f9ed 43bf 8a86 113c 766f c33e
00000160: 75f0 5a3f 4e96 de3e 9320 c5bd 28f6 0ebf
00000170: 4205 1940 8fdb cfbc 5f56 983f d8bf 403e
00000180: 6835 d3be b8e4 0dbe 1e0c 15bf 5650 8d3f
00000190: 4579 8ebd 49da 3e3f 76ac 673e 86fb 8cbd
000001a0: 6496 25bc b6b5 c5be 4f59 12bf 7b58 183e
000001b0: 586f a8be 9f52 9e3f b973 3dbd afce 3abf
000001c0: 5808 1dbd bbdf 0a3b 73a4 56be fca5 a83f
000001d0: 42c7 c63f ddd1 3b3f 6439 e53c c775 9c3f
000001e0: 2cfc 00bf 668f 073e a8a4 96bd 5fbd 763f
000001f0: f957 873e e45b 923c ba13 0e3e bae1 963f
00000200: 88b2 d7bc 5b62 9d3d ac2e c6bb 04d1 70be
00000210: 3d2b cf3f 7eb1 a53d 26fb b3be 1756 9fbe
00000220: 90ee cfbc fb02 51bc 274a 4bbd ff15 97bf
00000230: be55 173f ca24 57bd a232 053f cfbe 25bd
00000240: c054 18bf 9f0b 863e cc6c af3f 076d c33f
00000250: f5f1 14be 1875 f43e adf0 07be 2e10 9bbd
00000260: 9486 c6bd 1056 67bd f51a 8ebe 8818 8bbe
00000270: 9d97 bbbe daa0 313e 7012 df3f a1c7 e43e
00000280: 0e53 9bbd 9697 8dbf 7374 cd3e d352 243f
00000290: 979d 4abe 72d2 ae3f db78 6c3f b28c 933f
000002a0: 579c 953d d2a0 58bd 8c56 c63f 076e 723e
000002b0: 2326 ac3e 0721 15bd 182a e43e 562e debd
000002c0: 30d3 efbb ab37 043f 3602 823f 9f65 e3bc
000002d0: f55b 8c3c 5496 11bf 4b63 683f a2ba a1be
000002e0: 2a51 193f 97eb 783f 03ab 0a3f c011 cabe
000002f0: 65d0 8cbd 9eb1 de3f 8c2d a63f f6b0 203e
00000300: a966 fe3f a00f 9c3f f47f 693f 2253 a83f
00000310: e53d 3abf a1f3 683f feab fe3d 9a67 72bf
00000320: 0b24 893f 911a e2bc 9c06 913f 3c71 7b3e
00000330: 95f3 8e3f d3cb 8fbd 2c01 9bbd 2468 e8bc
00000340: 42ea a83d 6e36 0ebf 1193 9b3d 3987 463c
00000350: 3281 353f 5003 273e ed11 85be f5ea bdbc
00000360: b481 3bbf f106 88be f42b 1c3f 72dd 1ebd
00000370: aff8 dbbc 8bb2 703e af6a 6dbd dcd2 c73f
00000380: 9558 37bd cf5b 3e3f db77 763f 949d 85be
00000390: 4302 913f 52cf 5abd 75c9 4abf 2901 fabe
000003a0: 5719 463f caba 5dbe 381b 22bd c16c 253f
000003b0: 988c 65bd 4868 90bd c985 87bd cea7 b43f
000003c0: 14b1 2abd df2e 9b3f 24cd 2bbf 689f 04bf
000003d0: 9088 c63f af6c 8ebd 2cd7 2d3e 9022 26bd
000003e0: 1b11 9bbe 3137 083f 2899 023e fcbb d33f
000003f0: 9cdc 833e 5c92 1b3f 4e2d 48bf c28c 97be
0.42026943 1.5235991 0.0109364195 1.221668 -0.0071093906 0.34089682 1.3282286 -0.03032975
-0.27495778 -0.8136113 -0.24193834 0.15170908 -0.052641623 -0.00731627 -0.06410161 -0.29041165
0.0005640132 -0.07579386 0.025312088 0.5458751 -0.22999169 0.009439902 -0.66802967 0.44206783
-0.0672131 0.0031134516 -0.17491318 -0.024232231 -0.929079 1.1022367 0.09815359 -0.44000664
-0.0554534 -0.05111787 -1.1240456 0.30309224 0.36055675 0.43307036 -0.043801166 0.40692157
-0.066609845 -0.03897498 -0.56127435 0.782272 -0.057697922 2.3042727 -0.0066132536 1.6290318
-0.057703007 -0.056336097 -0.0611357 0.13082491 -0.01053625 -0.06766201 -0.088696115 -0.035155527
-0.17113285 -0.012791029 0.45764372 0.009392785 0.17811911 -0.056580205 0.95642024 0.22210751
1.6998293 -0.6344599 -0.8479315 -1.2539669 0.19478236 0.12095734 0.1234484 0.09391255
-0.06634157 -0.44662493 0.14896491 -0.25516218 0.5752864 -0.270537 -1.2217581 -0.013744818
-0.583358 0.7021249 -0.024427427 0.8651815 -0.06049784 -0.7653499 0.008882174 0.38170975
0.8552316 0.43474048 -0.09625354 -0.55844355 2.390946 -0.025373248 1.1901358 0.18823183
-0.41251683 -0.1385678 -0.58221614 1.1040142 -0.06956724 0.74551827 0.22624382 -0.06883912
-0.010106657 -0.38615197 -0.57167524 0.14877503 -0.3289745 1.2368964 -0.04625294 -0.72971624
-0.038338035 0.0021190483 -0.2096117 1.3175654 1.5529559 0.733671 0.027981468 1.2223443
-0.50384784 0.13238296 -0.073556244 0.9638271 0.26434305 0.017866082 0.13874713 1.1787636
-0.026330248 0.076847754 -0.006048044 -0.23517233 1.618507 0.080904946 -0.3515255 -0.3112037
-0.02538231 -0.012757058 -0.049631264 -1.1803588 0.5911521 -0.05252532 0.52030385 -0.040465172
-0.5950432 0.2618074 1.3705077 1.5267648 -0.14545424 0.47745585 -0.13275404 -0.075714454
-0.096936375 -0.05647856 -0.27754942 -0.27167153 -0.3663911 0.17346516 1.7427502 0.44683555
-0.07584201 -1.1061885 0.40127906 0.6418888 -0.19786678 1.3657973 0.9237191 1.1527312
0.0730521 -0.052887745 1.5495162 0.23674785 0.33622846 -0.03640845 0.44563365 -0.10848682
-0.0073188767 0.5164744 1.0156925 -0.027758418 0.017133692 -0.5687001 0.9077651 -0.31587702
0.5988947 0.9723448 0.54167193 -0.39466667 -0.068756856 1.7397954 1.298265 0.15692505
1.9875079 1.2192268 0.91210866 1.315037 -0.72750694 0.9099675 0.12435149 -0.94689333
1.0714124 -0.027600558 1.1330142 0.24554914 1.1168085 -0.07021298 -0.07568583 -0.02836997
0.08247806 -0.55551803 0.0759641 0.0121172005 0.7090026 0.16309857 -0.2599024 -0.023183325
-0.73244786 -0.26567796 0.6100457 -0.038785405 -0.02685198 0.23505609 -0.05796307 1.5611224
-0.044762213 0.7435884 0.96276635 -0.26096785 1.1328815 -0.053420372 -0.7921365 -0.4882901
0.77382416 -0.21653286 -0.03957674 0.6461907 -0.056042284 -0.0705114 -0.06617314 1.411371
-0.04167278 1.2123679 -0.67109895 -0.51805735 1.5510426 -0.069543235 0.16976613 -0.040560305
-0.30286488 0.53209215 0.12753737 1.6541743 0.2575425 0.607702 -0.7819413 -0.29599577

fc2.weight f4 [10, 256]
00000000: 66a8 4c3d d30a 82be 92c0 eabc 30ab 0dbe
00000010: 857d 28bd ebc8 d2bd 02d6 e0be ae06 7abd
00000020: e080 0bbe f43b 233d 1d01 0b3d 3e9e aa3b
00000030: 69bf f8bd a945 4abd 5769 1e3d 88d3 a13d
00000040: 4656 cd3c 89b0 b6bc 6d66 193c 6700 5cbd
00000050: f27b bbbd e983 52bd ae83 153d b04f adbc
00000060: 1b0e 2cbd 74dd 49bd 4999 aabd 1f82 32be
00000070: 3edc d2bd 7515 a83d 92f5 06be d318 35bd
00000080: b08c f4bc 02a1 97bd 6c2e 403d 265d 573d
00000090: 70e7 843d a8fe c13d de3a 63bc 9d0b 95be
000000a0: 1aaf c53b 0c46 8f3b b690 913d f00f 293d
000000b0: 09a6 19bd f03f e7be 99ce 82bd 6cc3 70be
000000c0: 834d 47bd 90ac 18bd 963b 3e3d 04b4 633d
000000d0: 280d 03bd 729c 76bc 9c25 81bd fa99 57be
000000e0: 2c96 9d3d 5a1f 6cbd 17c0 26bd 39e1 39be
000000f0: e030 b1be f346 153d 8ce2 8bbe 4014 9a3d
00000100: 7e24 b23d b01e d2bd 361f 3a3d fbbd 073e
00000110: ee6c d7bd a010 d63c 45b9 3cbe 4b3c 31bd
00000120: 193b 87bd d8a9 7abd 6f7f 5d3d a667 773d
00000130: 43ae 1d3d 7c84 0f3d bc0a 9d3d 97ce 5dbc
00000140: b2e2 063d 26ff 64bd 0d46 88bd b8dc f53d
00000150: ee2f a0bc c618 d93d 3910 70be 18ec 86bd
00000160: 8daa c7be bb53 28be 6174 04be a1b4 a43d
00000170: 5500 b1be 09af 9fbc ef82 d2bd 0ace 7e3d
00000180: ba55 cfbc bf61 b3bd 4367 09bd 6997 e13d
00000190: 93db e23c 8b3b d53c d03d 9a3d 3cf9 1bbd
000001a0: 3e6b 6cbd efcf 95bd 90c0 1f3d f9c2 05be
000001b0: 10ff 5d3d 79d7 14be 09b0 0b3c fc20 f23d
000001c0: e278 09bd c174 733c 8cef 2ebe 5c6b 78be
000001d0: f7ba 93bd 8b53 5ebe ccc6 9a3c 9223 643d
000001e0: 92b3 2fbd 9306 2bbe fe4c 253b bb5b 53be
000001f0: f3a2 8b3c 7fc9 87bc 89f8 693d 871f aebd
00000200: a2e7 8bbd 4d95 64bd 968b 6d3d 255f 603d
00000210: e85d 51be ed33 b0bd a9cf 91be da88 993c
00000220: d68e 14bd 6ec6 8e3d b676 cdbd 9d78 4b3d
00000230: fa20 9cbe cfec 03bd 124a dabd 7400 f0bc
00000240: d90f 6d3d ecb0 b93d 9df0 cdbc 6538 28be
00000250: 6a0c 523d 3ae2 b7bd cf88 38bc 9bce 02be
00000260: 1d52 b53d 5069 be3c a8e2 183e d310 41be
00000270: ba68 0fbe afb4 8bbd 5216 9cbe 8b07 a3be
00000280: f076 d33a 6fe4 ab3a a6b3 b63d 952c b73b
00000290: 1896 23be 4f40 963c b6c3 083d f385 c3bd
000002a0: 7492 673e 7b09 9d3a ddb2 a3be 917d dbbd
000002b0: ee87 003d 0b05 493d d069 32be b240 483d
000002c0: e864 5ebc eb97 8abe 2d4b f53b f289 863c
000002d0: 03ba 4c3d c4a2 173d a59e 3cbe f21d c03d
000002e0: c1df 28be 72aa 023e d924 d3bd 6eb6 1abe
000002f0: 2b87 36bd b234 e3bb 9791 50be 6f68 09be
00000300: 1156 9abe f2a0 3fbe b15e 5fbd 25cd 623d
00000310: 099b b23d 59cf 18bd 91d9 6ebe 75c9 35bd
00000320: 76e7 0ebe 773e 26bd 9f8a eebd 212f b2be
00000330: 2af6 51be c472 cfbd efe8 a1bc 2f4c ddbc
00000340: ed41 c7bd 3537 0cbb 997b 1f3d 872e 1ebd
00000350: 1fc8 da3d 8210 2e3c 4810 9f3c 11ed 86ba
00000360: 164c b93d b888 5f3d 4270 afbd 9bd5 f23c
00000370: 32c3 9fbd 2d94 47bd 109b f53c e107 afbe
00000380: d665 78bd f773 4e3d ac48 e5bd eb4a afbd
00000390: 6f58 d9bd f948 8db9 9d45 543d bca9 bdbb
000003a0: 2f64 08be 441b 5a3d c45e c53d fb04 9bbd
000003b0: d9c9 223d 86e4 08bd e413 b5bc ed22 0abe
000003c0: 3bc9 97bc e8be 28be 3505 803b 65a4 20be
000003d0: 345e 8ebe 0f0d dfbc 72d6 a43d 6958 883c
000003e0: 2a68 1abd 1c46 3f3d 7f61 42be c0e2 babd
000003f0: cd43 523d 6f14 c93c 3043 adbd 0b57 0cbe
0.049965285 -0.25398883 -0.028656278 -0.13834834 -0.04113533 -0.10292228 -0.43913275 -0.061041526
-0.1362338 0.039852098 0.03393661 0.005206852 -0.121458836 -0.04938284 0.03867468 0.079016745
0.025065552 -0.022300975 0.009362799 -0.05371132 -0.091545 -0.05139533 0.036502533 -0.021156162
-0.04200564 -0.04928346 -0.08330018 -0.1743245 -0.10295914 0.082072176 -0.13179615 -0.044213127
-0.029852241 -0.07403757 0.04691927 0.052579068 0.06489456 0.094724 -0.0138690155 -0.29110423
0.0060328366 0.004372364 0.071076795 0.041274965 -0.03751186 -0.45165968 -0.063870616 -0.23512048
-0.048657905 -0.037273943 0.046443544 0.0555916 -0.03199497 -0.015051948 -0.063060015 -0.21054831
0.07694659 -0.057647087 -0.040710535 -0.18152322 -0.346076 0.036444616 -0.2732128 0.07523394
0.086983666 -0.102597594 0.04543992 0.13256066 -0.105188236 0.026130974 -0.1843005 -0.04327039
-0.06603069 -0.061197132 0.05407661 0.06040158 0.038496267 0.035038456 0.07668063 -0.013538024
0.032931037 -0.05590739 -0.06653986 0.120049894 -0.019554105 0.10600428 -0.23443688 -0.06588
-0.38997307 -0.1643819 -0.1293502 0.08042265 -0.34570566 -0.019492643 -0.1027888 0.062208213
-0.025309432 -0.08758878 -0.033545744 0.11015207 0.027692592 0.026029369 0.07531321 -0.038079485
-0.05771946 -0.07315051 0.039002 -0.13062657 0.054198325 -0.14535321 0.008525857 0.118226975
-0.03356255 0.014859379 -0.17083567 -0.24259704 -0.07213395 -0.21711557 0.018893622 0.055697985
-0.04289586 -0.16701727 0.0025222893 -0.20640461 0.017045474 -0.016575573 0.057121787 -0.08502107
-0.0683129 -0.055806447 0.057994448 0.054778237 -0.20445979 -0.08603654 -0.28478745 0.018742014
-0.03626903 0.06971441 -0.10032408 0.049675573 -0.3049391 -0.03220826 -0.10658659 -0.029297091
0.05787644 0.09066948 -0.025139147 -0.16427763 0.05128137 -0.08978696 -0.011263086 -0.12774126
0.088535525 0.023243576 0.14930212 -0.18854074 -0.14004794 -0.06821572 -0.3048578 -0.31841692
0.0016133469 0.0013114343 0.08920984 0.0055900314 -0.15975225 0.018341212 0.03338977 -0.09547033
0.22614461 0.0011980975 -0.319724 -0.10717309 0.031379633 0.049077075 -0.17423177 0.048889823
-0.013573863 -0.2706903 0.0074857683 0.0164232 0.049982082 0.03702046 -0.18419893 0.093807116
-0.16491605 0.12760332 -0.103097625 -0.15108654 -0.0445625 -0.006933772 -0.20368038 -0.13418745
-0.30143788 -0.1871374 -0.054533664 0.055371422 0.08720977 -0.037307117 -0.23325182 -0.044381578
-0.13955483 -0.040586915 -0.116475336 -0.34801582 -0.2050406 -0.10129312 -0.019764392 -0.027013866
-0.09729371 -0.002139521 0.03893623 -0.03861859 0.10682701 0.010624053 0.019416943 -0.001029404
0.09047715 0.054573745 -0.08566333 0.02964287 -0.078009024 -0.048725296 0.029981166 -0.341857
-0.060643993 0.05040356 -0.11195502 -0.08559211 -0.106125705 -0.00026947985 0.0518242 -0.005788056
-0.13319467 0.05324866 0.09637216 -0.07569309 0.03974328 -0.033421062 -0.022104211 -0.13489886
-0.018528571 -0.16479075 0.0039068707 -0.15687712 -0.27806246 -0.027227907 0.08048715 0.01664372
-0.037696995 0.04669772 -0.18982504 -0.091252804 0.05133419 0.024545876 -0.084600806 -0.1370508

fc2.bias f4 [10]
00000000: a6c6 78be 85ad 83be 6c0d b6be a7d4 b73e
00000010: 1f80 723e 7813 343e 5382 e63c 59f7 6e3d
00000020: d61d a6be 68c6 223e
-0.24294528 -0.25718322 -0.35557115 0.35904428 0.23681687 0.17585552 0.028138315 0.058341358
-0.32444638 0.15895998
